model/keypoint_classifier/keypoint_classifier.tflite (tflite, 7376 bytes, 8 tensors)

sequential/dense_3/BiasAdd/ReadVariableOp/resource f4 [32]
000000 f1 89 93 3d b0 cd 8a bc 96 d4 24 3d f2 5e 9c 3d
       0.072040446 -0.016943783 0.0402418 0.07635297
000010 ec 81 90 bc 13 31 75 3d 2d 4b 82 3c 00 00 00 00
       -0.017640077 0.059861254 0.015904987 0.0
000020 24 bb b8 bc 00 00 00 00 43 2b b9 3c 4a de 89 3c
       -0.022550173 0.0 0.022603637 0.016829628
000030 18 b8 8c 3d 99 ca 8f 3d 00 00 00 00 00 00 00 00
       0.068710506 0.07021064 0.0 0.0
000040 2e fa 85 3d 31 6e a8 3d 08 96 42 3d ff 9d 53 3c
       0.065418586 0.08224142 0.047506362 0.012916087
000050 c0 5b 28 3d ca 27 0c bd c9 b4 c2 3d d2 f0 88 3d
       0.041103125 -0.034217633 0.09507138 0.06686558
000060 ca 5f 51 bc 00 00 00 00 bc d4 83 3d 00 00 00 00
       -0.012779186 0.0 0.0643706 0.0
000070 00 00 00 00 00 00 00 00 58 e9 76 3d 46 7e 7c 3b
       0.0 0.0 0.060281128 0.0038527413

sequential/dense_4/BiasAdd/ReadVariableOp/resource f4 [32]
000000 f6 a7 a0 3d af 9b d1 bc d4 ad a1 bc 25 cb c8 bc
       0.07844536 -0.025586931 -0.019736208 -0.02451093
000010 d6 db 15 3c 41 72 8f 3d 8d eb 20 bc 6b 19 cb 3c
       0.009146651 0.07004214 -0.009821785 0.024792394
000020 de 99 2f 3d 4e 53 03 bd 13 4e 24 bd f5 e2 f1 3c
       0.04287135 -0.032061867 -0.04011352 0.029527167
000030 e1 9c ef bb fe 4c c8 bc 00 00 00 00 1b 4a c1 3c
       -0.0073124026 -0.024450775 0.0 0.023594907
000040 7e a2 6c bc 44 21 c0 bb bd 34 fe bc 98 bf 91 3d
       -0.014443038 -0.0058633406 -0.031031007 0.07116622
000050 92 71 6d 3d aa c3 80 bc 00 00 00 00 1e 73 0a bd
       0.057969637 -0.0157183 0.0 -0.03380119
000060 fb 87 34 3c 1a 32 80 3d 39 c5 7c 3d 64 65 09 3d
       0.011018748 0.06259556 0.061711524 0.03354396
000070 aa 61 82 bc 6e f8 2f 3d 20 e8 3f 3d d5 d1 9c 3d
       -0.01591571 0.04296153 0.04685223 0.0765721

sequential/dense_5/BiasAdd/ReadVariableOp/resource f4 [16]
000000 d0 ba 5c 3c 16 85 5d 3d 0c f6 8c bc 14 c5 95 3d
       0.013472274 0.054082 -0.017207168 0.0731298
000010 11 db a2 3d f1 8d 2d bc 97 f8 a0 3d 24 b3 0a bc
       0.0795194 -0.0105929235 0.07859915 -0.008465562
000020 a9 4d 51 bc 00 00 00 00 9f b9 5d 3d 00 00 00 00
       -0.012774863 0.0 0.0541321 0.0
000030 4d aa 14 3d 00 00 00 00 6f 4b 88 3d a3 05 bc 3c
       0.036295224 0.0 0.06655013 0.022951907

sequential/dense_6/BiasAdd/ReadVariableOp/resource f4 [3]
000000 69 9a 89 3d 0e 81 a5 3d 39 3e a3 bd
       0.067189045 0.08081256 -0.079708524

sequential/dense_3/MatMul i1 [32, 42] scale=0.0030554873 zero_point=0
000000 e3 0f 34 c3 9b ef f4 c7 18 fe 42 99 f5 f0 32 a4
       -0.08860913 0.04583231 0.15888534 -0.18638472 -0.3086042 -0.051943284 -0.03666585 -0.17416278 0.0733317 -0.0061109746 0.20166217 -0.31471518 -0.03361036 -0.048887797 0.15277436 -0.28110483
000010 04 da 38 2f e3 37 cc b9 06 ea 5c ee c7 a8 f2 ed
       0.012221949 -0.116108514 0.17110729 0.1436079 -0.08860913 0.1680518 -0.15888534 -0.2169396 0.018332925 -0.06722072 0.28110483 -0.05499877 -0.17416278 -0.26888287 -0.042776823 -0.058054257
000020 06 1b 30 c9 f4 42 b3 cf 2c b2 1d 2e d2 cc 9c 4e
       0.018332925 0.082498156 0.1466634 -0.1680518 -0.03666585 0.20166217 -0.23527253 -0.14971888 0.13444144 -0.23832801 0.08860913 0.14055242 -0.14055242 -0.15888534 -0.30554873 0.23832801
000030 3d d7 c2 1b c6 c5 b6 11 f4 c4 a3 08 19 f9 00 b9
       0.18638472 -0.12527499 -0.1894402 0.082498156 -0.17721826 -0.18027376 -0.22610606 0.051943284 -0.03666585 -0.18332924 -0.28416032 0.024443898 0.07638718 -0.021388412 0.0 -0.2169396
000040 ec 24 57 6d ce a0 05 eb 1d 2b 5b bf e4 1f 72 e6
       -0.061109744 0.10999754 0.2658274 0.3330481 -0.15277436 -0.2933268 0.015277436 -0.064165235 0.08860913 0.13138595 0.27804935 -0.19860667 -0.085553646 0.0947201 0.34832555 -0.07944267
000050 c6 5a e5 c8 a7 a7 fc 02 43 de f1 d4 40 aa ba dd
       -0.17721826 0.27499387 -0.082498156 -0.17110729 -0.27193838 -0.27193838 -0.012221949 0.0061109746 0.20471765 -0.10388657 -0.04583231 -0.13444144 0.19555119 -0.2627719 -0.21388412 -0.10694206
000060 e0 c0 e3 60 17 ee 0b ee 4b ec a3 58 f9 b7 98 17
       -0.09777559 -0.19555119 -0.08860913 0.2933268 0.07027621 -0.05499877 0.03361036 -0.05499877 0.22916155 -0.061109744 -0.28416032 0.26888287 -0.021388412 -0.22305058 -0.3177707 0.07027621
000070 aa 9c bf fd ba f8 d5 17 2d b3 1e 38 2c 82 a4 35
       -0.2627719 -0.30554873 -0.19860667 -0.009166462 -0.21388412 -0.024443898 -0.13138595 0.07027621 0.13749693 -0.23527253 0.09166462 0.17110729 0.13444144 -0.3849914 -0.28110483 0.16194083
000080 f9 55 19 64 ff be e2 e2 20 8f d1 18 24 58 c1 f0
       -0.021388412 0.25971642 0.07638718 0.30554873 -0.0030554873 -0.20166217 -0.09166462 -0.09166462 0.09777559 -0.34527007 -0.1436079 0.0733317 0.10999754 0.26888287 -0.1924957 -0.048887797
000090 ff de ab 47 33 37 d1 ef d0 8a 0f c9 cc 55 db 3d
       -0.0030554873 -0.10388657 -0.25971642 0.2169396 0.15582985 0.1680518 -0.1436079 -0.051943284 -0.1466634 -0.3605475 0.04583231 -0.1680518 -0.15888534 0.25971642 -0.11305303 0.18638472
0000a0 41 08 c6 eb 2a 11 41 98 00 b9 f8 dc d0 e2 51 fb
       0.19860667 0.024443898 -0.17721826 -0.064165235 0.12833047 0.051943284 0.19860667 -0.3177707 0.0 -0.2169396 -0.024443898 -0.10999754 -0.1466634 -0.09166462 0.24749447 -0.015277436
0000b0 39 db 10 c3 d6 de e5 cb dd 3c 30 2a 34 3a 3d d2
       0.17416278 -0.11305303 0.048887797 -0.18638472 -0.12833047 -0.10388657 -0.082498156 -0.16194083 -0.10694206 0.18332924 0.1466634 0.12833047 0.15888534 0.17721826 0.18638472 -0.14055242
0000c0 18 27 b4 f6 46 ff dd 1b df 47 1e 58 b0 28 5c 38
       0.0733317 0.119164005 -0.23221703 -0.030554872 0.21388412 -0.0030554873 -0.10694206 0.082498156 -0.100831084 0.2169396 0.09166462 0.26888287 -0.24443898 0.12221949 0.28110483 0.17110729
0000d0 db fb d9 b7 c8 13 00 03 99 5f c2 b6 29 ce e9 10
       -0.11305303 -0.015277436 -0.119164005 -0.22305058 -0.17110729 0.058054257 0.0 0.009166462 -0.31471518 0.29027128 -0.1894402 -0.22610606 0.12527499 -0.15277436 -0.07027621 0.048887797
0000e0 26 38 ae 33 33 2d 3f 05 23 eb 23 cf bb a7 cf 29
       0.116108514 0.17110729 -0.25054997 0.15582985 0.15582985 0.13749693 0.1924957 0.015277436 0.10694206 -0.064165235 0.10694206 -0.14971888 -0.21082862 -0.27193838 -0.14971888 0.12527499
0000f0 16 4a 12 51 4f a1 5f c0 d7 61 ee fb de 07 c4 5b
       0.06722072 0.22610606 0.05499877 0.24749447 0.2413835 -0.29027128 0.29027128 -0.19555119 -0.12527499 0.29638228 -0.05499877 -0.015277436 -0.10388657 0.021388412 -0.18332924 0.27804935

sequential/dense_4/MatMul i1 [32, 32] scale=0.0032273107 zero_point=0
000000 68 d8 01 f1 e3 c6 c5 ac 2f e5 b1 77 3f 4b e4 42
       0.3356403 -0.12909243 0.0032273107 -0.04840966 -0.09359201 -0.18718402 -0.19041133 -0.2710941 0.1516836 -0.087137386 -0.25495756 0.38404998 0.20332058 0.24204831 -0.0903647 0.2130025
000010 3b a6 09 65 43 b8 0d 51 14 f6 1b f8 55 13 00 05
       0.19041133 -0.29045796 0.029045796 0.32595837 0.21622981 -0.23236637 0.04195504 0.26141217 0.06454621 -0.032273106 0.087137386 -0.025818486 0.2743214 0.061318904 0.0 0.016136553
000020 40 44 0d ae fb 01 20 ea d2 14 07 ca b0 d7 43 db
       0.20654789 0.21945713 0.04195504 -0.26463947 -0.016136553 0.0032273107 0.10327394 -0.07100084 -0.14845629 0.06454621 0.022591176 -0.17427477 -0.25818485 -0.13231973 0.21622981 -0.1194105
000030 54 28 9e 04 04 19 f4 19 e0 bb 25 24 32 e9 b4 be
       0.2710941 0.12909243 -0.31627646 0.012909243 0.012909243 0.08068277 -0.03872773 0.08068277 -0.10327394 -0.22268444 0.1194105 0.116183184 0.16136554 -0.074228145 -0.24527562 -0.2130025
000040 bd ba cd f9 2b c0 49 db 35 bb f3 dd b6 22 c4 4f
       -0.21622981 -0.22591175 -0.16459285 -0.022591176 0.13877437 -0.20654789 0.23559368 -0.1194105 0.17104746 -0.22268444 -0.04195504 -0.112955876 -0.238821 0.10972857 -0.19363864 0.25495756
000050 49 16 cd 3c 9c c7 b3 d2 f0 40 c6 b4 47 ee 20 a9
       0.23559368 0.07100084 -0.16459285 0.19363864 -0.32273108 -0.18395671 -0.24850293 -0.14845629 -0.05163697 0.20654789 -0.18718402 -0.24527562 0.22913906 -0.058091592 0.10327394 -0.28077602
000060 48 e3 02 e3 15 ed dd 43 e1 ca 0e c3 cb 44 b1 cc
       0.23236637 -0.09359201 0.0064546214 -0.09359201 0.06777353 -0.061318904 -0.112955876 0.21622981 -0.100046635 -0.17427477 0.04518235 -0.19686596 -0.17104746 0.21945713 -0.25495756 -0.16782016
000070 b7 db 43 1c b2 be 4c e6 30 0e 9a ad e2 51 a5 15
       -0.23559368 -0.1194105 0.21622981 0.0903647 -0.25173023 -0.2130025 0.24527562 -0.08391008 0.15491092 0.04518235 -0.3291857 -0.2678668 -0.09681932 0.26141217 -0.2936853 0.06777353
000080 6e d8 b2 d8 e2 16 db e3 fe bc 53 b4 ac 48 c3 f8
       0.3550042 -0.12909243 -0.25173023 -0.12909243 -0.09681932 0.07100084 -0.1194105 -0.09359201 -0.0064546214 -0.21945713 0.2678668 -0.24527562 -0.2710941 0.23236637 -0.19686596 -0.025818486
000090 d7 54 bc eb 00 fa 41 ba b8 e6 71 0c 1d c8 5f cf
       -0.13231973 0.2710941 -0.21945713 -0.06777353 0.0 -0.019363865 0.2097752 -0.22591175 -0.23236637 -0.08391008 0.3646861 0.03872773 0.09359201 -0.1807294 0.30659452 -0.15813823
0000a0 a3 e3 00 26 da 70 09 17 58 4d 43 4c d7 b4 ca dc
       -0.3001399 -0.09359201 0.0 0.12263781 -0.12263781 0.3614588 0.029045796 0.074228145 0.28400335 0.24850293 0.21622981 0.24527562 -0.13231973 -0.24527562 -0.17427477 -0.116183184
0000b0 cd ae 16 64 78 cf d7 16 04 dd e2 d8 b8 30 16 55
       -0.16459285 -0.26463947 0.07100084 0.32273108 0.38727728 -0.15813823 -0.13231973 0.07100084 0.012909243 -0.112955876 -0.09681932 -0.12909243 -0.23236637 0.15491092 0.07100084 0.2743214
0000c0 d5 e2 9f d8 d1 d0 29 10 e1 e2 26 52 a5 60 f2 48
       -0.13877437 -0.09681932 -0.31304914 -0.12909243 -0.1516836 -0.15491092 0.13231973 0.05163697 -0.100046635 -0.09681932 0.12263781 0.26463947 -0.2936853 0.30982184 -0.04518235 0.23236637
0000d0 f5 72 40 b1 d2 ae 38 3a b7 5d e6 12 e1 32 f2 32
       -0.03550042 0.36791342 0.20654789 -0.25495756 -0.14845629 -0.26463947 0.1807294 0.18718402 -0.23559368 0.3001399 -0.08391008 0.058091592 -0.100046635 0.16136554 -0.04518235 0.16136554
0000e0 24 c1 57 0c cf 8e 0b d7 f4 40 18 20 d9 73 52 4c
       0.116183184 -0.20332058 0.28077602 0.03872773 -0.15813823 -0.36791342 0.03550042 -0.13231973 -0.03872773 0.20654789 0.07745546 0.10327394 -0.12586512 0.37114072 0.26463947 0.24527562
0000f0 6b 49 3a 0a 2c c2 2a 29 65 b5 23 0f b3 4b 53 f0
       0.34532225 0.23559368 0.18718402 0.032273106 0.14200167 -0.20009327 0.13554706 0.13231973 0.32595837 -0.24204831 0.112955876 0.04840966 -0.24850293 0.24204831 0.2678668 -0.05163697

sequential/dense_5/MatMul f4 [16, 32]
000000 90 9a a8 3e 99 66 8f 3e d7 9e f3 3a f7 0b 86 be
       0.32930422 0.28007963 0.0018586767 -0.26181003
000010 e8 71 59 3e 9b bd f6 bb 25 15 6e 3d 16 13 82 3e
       0.21234858 -0.007529927 0.058125634 0.25405186
000020 df 36 81 3e 83 4e b7 bd c1 de 23 3c d6 4f 0c 3e
       0.25237176 -0.08950522 0.010001839 0.1370233
000030 12 25 88 be b2 70 b9 3e ec b8 50 be 0d b0 a0 be
       -0.26590782 0.36218792 -0.20383042 -0.31384316
000040 2f f0 de 3d 86 6b 29 3e b3 64 af 3d d9 c1 ce 3e
       0.10885655 0.16544923 0.08564129 0.4038227
000050 78 9f cc 3d 2a 95 0a bd 49 d0 a9 3e b8 89 3c 3e
       0.09991354 -0.03383366 0.3316672 0.1841191
000060 df 86 e4 bc a1 42 93 be 89 99 c5 bc 10 2a 5b 3d
       -0.027896343 -0.2876177 -0.024121063 0.05350691
000070 19 54 7d be 75 c6 80 3e f2 1b ea bd 48 e2 b6 3d
       -0.24739112 0.2515141 -0.114311114 0.089298785
000080 19 7b b1 3e 4a 8b a0 be dc da 9d be e9 a2 1e bd
       0.3466423 -0.3135627 -0.3083104 -0.038729582
000090 9e 43 bb be e5 50 87 3e 16 c6 b5 be 40 8e 7b 3e
       -0.36575025 0.26428905 -0.3550269 0.24565983
0000a0 56 9c 67 3d 44 38 62 be 09 4e f0 bd fe 67 1c 3e
       0.056545578 -0.22091776 -0.11733634 0.15274045
0000b0 43 50 ac be fd 67 22 3e 6a f5 ef bd 35 41 55 be
       -0.33654985 0.15859981 -0.11716731 -0.20825656
0000c0 c8 ac c9 3d 57 ef db bd 7e 4a 67 be e1 64 e0 bb
       0.098474085 -0.1073901 -0.2258701 -0.006847963
0000d0 6c 78 62 be 0a 24 35 3e 54 2c 98 3d 02 c9 a8 3e
       -0.2211625 0.17689529 0.0743033 0.32965857
0000e0 8e 10 2e 3e 45 95 05 be 66 c3 50 3e 5f 99 12 bd
       0.16998503 -0.13045223 0.20387039 -0.035790797
0000f0 b6 2b 67 3c fd ce 7c be 8c 57 c5 3e 12 fc b8 3e
       0.014109543 -0.24688335 0.38543355 0.36129814
000100 58 af 92 be 4e 69 76 3e 1b 08 60 be 9b 55 52 be
       -0.28649402 0.24063608 -0.21878092 -0.20540468
000110 07 a2 9e 3e fc c0 8d bd 77 18 70 3e 8d 12 36 3e
       0.30982992 -0.069215745 0.23446833 0.17780514
000120 84 d3 9e 3e 24 89 fa 3d d6 b8 89 bd ce c3 01 be
       0.3102075 0.12233189 -0.06724708 -0.1267235
000130 ec 86 a0 3d 62 14 09 be 84 27 df 3d ff 50 c5 bd
       0.07838234 -0.13386682 0.10896209 -0.096345894
000140 c6 f8 97 be a8 d7 0f be 0d 09 b5 be e5 34 af bd
       -0.29681987 -0.1404711 -0.35358468 -0.08555011
000150 ad 72 bf bd 34 e8 b5 3d ae d3 72 be f8 9c 49 3d
       -0.093480445 0.0888218 -0.23713562 0.049221963
000160 f0 5f 26 bc 49 5d 1d be b4 08 45 be 73 1b 75 be
       -0.010154709 -0.15367617 -0.19241601 -0.23936252
000170 82 0b 81 be dd 29 c7 bc ba 5f 65 3d 87 f6 04 bd
       -0.25204092 -0.024311954 0.055999495 -0.03246167
000180 86 33 1e bd 89 e4 a1 3e b1 91 a7 3e 86 ac a1 be
       -0.038623355 0.3161967 0.3272834 -0.31576937
000190 90 d5 48 be c8 75 a4 3c 1b 57 3e be 31 7d 78 bd
       -0.19612718 0.020075694 -0.18587916 -0.060666267
0001a0 ed ca 05 3d 96 7f f5 3d dc 59 46 3e 80 96 ad bc
       0.03266423 0.11987226 0.19370216 -0.021189928
0001b0 90 fd be 3d 89 30 a2 3e 65 51 97 3e f5 04 6e be
       0.09325707 0.31677654 0.29554287 -0.23244078
0001c0 eb 0d a4 bd ea 6a b6 be b0 c7 7a 3d 7b fc ed 3e
       -0.08010467 -0.35628444 0.061225593 0.4648169
0001d0 8e c8 d8 3e e6 de 9c 3e 60 35 bc bc a6 68 99 bc
       0.4234051 0.30638808 -0.02297467 -0.018726658
0001e0 01 ef 78 3d f6 1e f5 bc 3b 78 ba bd 4b 78 09 3e
       0.060774807 -0.02992199 -0.091049634 0.13424794
0001f0 44 ed c5 be 12 13 b3 be b0 f2 d1 3d 60 db f7 bd
       -0.38657582 -0.34975487 0.10251367 -0.12102389
000200 8c fa 81 3b 9c 3e 96 3c 76 ca 2a be 60 98 26 be
       0.003966635 0.018340401 -0.16678795 -0.16269064
000210 a2 9e 49 be 17 c0 27 3c e7 29 a7 3b 85 29 16 be
       -0.1968942 0.010238669 0.0051014307 -0.14664276
000220 97 37 03 be eb ba 43 be b0 80 9b be d5 3b 49 3e
       -0.12814175 -0.19114272 -0.30371618 0.1965173
000230 15 ab 0c 3e 35 34 4f 3d 93 b4 ad be 8b d4 bf 3d
       0.13737138 0.050586898 -0.3392683 0.09366711
000240 73 7a 9e 3d 1b 4e ae 3d 91 a4 6e 3d d3 d9 aa 3e
       0.07738199 0.08510991 0.05826241 0.33369312
000250 00 f0 23 3e 00 a2 a2 be 88 3a 62 3d a4 72 db bd
       0.16009521 -0.3176422 0.0552316 -0.10715225
000260 e6 c4 72 3e aa e6 bf 3e bb e3 48 be 99 e5 20 3e
       0.23707923 0.3748067 -0.19618122 0.15712585
000270 c9 41 7e 3e 13 9b 59 be bd 4a 88 3e 47 36 c2 bd
       0.24829783 -0.21250562 0.2661952 -0.09483009
000280 cd 54 0e 3d 68 cc ad be 79 12 81 3e 48 bf 5b bd
       0.03474884 -0.33945012 0.25209406 -0.053649217
000290 82 73 aa 3b fd b9 ad 3e bd b3 a7 3d de 70 16 be
       0.005201758 0.3393096 0.08188579 -0.14691493
0002a0 6c 4b 45 be 32 9e 3d 3e 9c e4 47 be 0b 14 a9 be
       -0.19267052 0.18517378 -0.19520801 -0.33023104
0002b0 f3 d6 a2 be 65 71 a1 3e 86 dd 56 3e 50 2c 3c be
       -0.31804618 0.31531826 0.20982942 -0.18376279
0002c0 0f 7f 85 3e f7 63 7d be d4 4c 81 be 6f 09 1d be
       0.260735 -0.24745165 -0.25253928 -0.1533563
0002d0 f0 64 08 3e bb 64 54 be f6 7d 3d 3e 6b ee a8 be
       0.13319755 -0.2074155 0.18505082 -0.32994398
0002e0 66 5e 13 3e 01 d9 22 be 43 06 a1 be db 88 89 be
       0.14391479 -0.15903093 -0.3145009 -0.26862225
0002f0 d2 74 4c 3e 84 0e ae 3e 77 aa 12 be ef ef 5b 3e
       0.19966438 0.3399545 -0.1432284 0.21478246
000300 1a a2 20 3e 89 a2 ce bd 1e eb 71 be 7f cc 46 3e
       0.15686837 -0.10089595 -0.23624846 0.19413947
000310 12 0d e0 bd ef 38 03 3e cd 45 3f be 17 45 e3 bd
       -0.10939993 0.12814687 -0.1867897 -0.11097162
000320 21 d4 03 3e 20 68 4a bc 1b 54 80 3e 39 f8 b0 bb
       0.1287389 -0.012353927 0.25064167 -0.005400684
000330 8b 69 cb bb cf 4a ad be f0 37 88 bd a5 cc 46 be
       -0.00620765 -0.33846137 -0.06651294 -0.19414003
000340 fc 44 b0 bd de 3d 80 3d ba 1f 0f be 84 51 fb bb
       -0.08606908 0.062618 -0.13976946 -0.0076696295
000350 06 bf 72 be 98 8f 47 bd f1 07 ad 3e fe d9 09 be
       -0.23705682 -0.048720926 0.3379512 -0.13462064
000360 65 5f 83 3e b6 51 31 be 7b 4e b5 3e 29 f0 d7 bc
       0.25658718 -0.17316326 0.35411438 -0.026359634
000370 29 7d 7c 3e bd 40 ae 3e 7c 72 ad 3d 43 f8 02 3e
       0.2465712 0.34033766 0.08469102 0.12790017
000380 10 03 fa bd fe 03 53 3d 04 1b c1 bd f7 c4 89 3e
       -0.122076154 0.05151748 -0.09428981 0.26908085
000390 bc 48 b8 3c e6 44 27 3e 31 9c 7d bd bc e6 e5 bc
       0.02249562 0.16334876 -0.061916534 -0.028064124
0003a0 c8 2f 7a 3d 9b e9 79 be 98 34 ee bb 4f e1 27 bd
       0.061080724 -0.2440552 -0.0072694533 -0.040986355
0003b0 d2 a5 59 3e ee 94 3e 3e 17 ec ae 3e d6 95 bf 3d
       0.21254662 0.186115 0.34164497 0.09354751
0003c0 02 f3 81 be 29 ef a4 be cd 75 91 3d 0e 02 78 be
       -0.25380713 -0.32213715 0.07102547 -0.24219534
0003d0 66 fc 33 3e b0 08 30 be bc fe 78 be c8 e0 0e 3e
       0.17576751 -0.17190814 -0.24315923 0.13952935
0003e0 a6 30 96 3d 28 6c 29 3e aa 4b 99 be 25 b4 b3 be
       0.07333498 0.16545165 -0.2994054 -0.35098377
0003f0 2f bf a4 3e c2 0c 14 3d a4 d8 ae bb 0e 0b b2 be
       0.32177112 0.03614498 -0.005335884 -0.3477406

sequential/dense_6/MatMul f4 [3, 16]
000000 ac ab 1a bf 31 a4 1c 3f 8d fa 3c be 8a 95 01 bf
       -0.604182 0.61188036 -0.18454953 -0.50618804
000010 db c6 9d 3e 22 57 a0 3e 84 a4 10 3f 0c 7c ea be
       0.30815777 0.31316477 0.5650103 -0.45797765
000020 a6 ea db be 24 e3 a4 be 0b cf 16 3f b8 3d 0e be
       -0.4295246 -0.32204545 0.5890967 -0.13890731
000030 4d 72 82 be 16 9b c7 3e 78 2c 04 bf 04 de cc 3e
       -0.2547783 0.3898551 -0.51630354 0.40013134
000040 b3 05 aa 3e 76 ab 01 bf d9 52 0e be c2 e7 12 bf
       0.33207473 -0.50652254 -0.13898791 -0.57384884
000050 1d d1 30 be 8a b9 63 be b8 13 2c bf 71 0c 2a 3e
       -0.1726727 -0.22238746 -0.6721759 0.16606309
000060 76 4a 02 be d4 6d db be 0a e3 e6 3d 10 21 4e 3e
       -0.12723717 -0.4285723 0.11273773 0.201298
000070 d8 cc f6 be 8a 5f be 3e 05 e0 d4 3e 64 de 04 bf
       -0.48203158 0.37182266 0.41577163 -0.5190184
000080 9f 9d d1 3e 43 12 37 3e e7 08 80 3e 0f 0e 50 be
       0.40940568 0.1787806 0.25006792 -0.20317863
000090 16 1a 32 3e 9c cb 01 3f ef 94 c3 3e 8e de 87 3d
       0.17392763 0.5070131 0.38199565 0.06634246
0000a0 0a a1 e0 3d 46 9b da be 08 b8 6c 3d 20 c2 16 3d
       0.10968216 -0.4269659 0.057792693 0.036806226
0000b0 6d 0d 01 bf c0 ca be be f6 af 54 3d ac b3 98 be
       -0.5041111 -0.3726406 0.051925622 -0.2982458
